model/ppo_model.pth (torch, 700827 bytes, 19 tensors)

xlstm_cell.weight.weight f4 [512, 135]
00000000: efef 1abd fced de3c 0025 29bc 36df 623d
00000010: 4ef3 403d 601a 923c 6265 313d aa61 e7bc
00000020: 0ee5 2d3d 770f a23d 0e23 643d 6c58 0f3d
00000030: e7e9 af3d 8acc 323d 8717 42bd ce68 4c3d
00000040: b062 c23c e1bf 9f3d e05e 4abb de45 74bd
00000050: 3ebb 423d 0487 a2bc 8a8a 72bd b6c3 3f3d
00000060: 6678 27bd 3af6 3a3d 78da b53c 5675 663d
00000070: 0212 7c3d 66ab 8bbd cfc3 8f3d ac19 9ebd
00000080: 395f 7bbd 6059 9ebb be57 0fbd e697 153d
00000090: c6c7 a2bd 80dc 7ebb 3ba8 53bd 20ed 1c3d
000000a0: aa68 173d 0ef2 473d ca5c 6d3d 98e3 0c3c
000000b0: 2063 a4bc b65a 6d3d 0069 7abd ac8b c83c
000000c0: 2c46 7fbd 6836 343c bf86 ad3d d014 da3c
000000d0: 00f0 9e39 3c74 8a3c 7f76 923d a180 a13d
000000e0: 1b30 9e3d 3a69 a9bd 18ea 2cbc 0f6d 883d
000000f0: 831c ae3d db59 12bd 5b1b a53d 00fb f53b
00000100: 64fd c03c 1386 9f3d 80ae a83a 5634 65bd
00000110: fc6e 22bd 0fed ab3d 2acd 323d b0a4 84bd
00000120: ed00 5abd 784a d23c 20f3 4abc 4be5 933d
00000130: 002d 3c3c edae 3cbd 92d8 443d 9b47 4abd
00000140: 508f 67bc 1ef5 88bd 1eb0 e7bc 24aa cabc
00000150: 203c afbc bde8 0bbd 6087 1abc 16da 213d
00000160: dec7 1c3d 00c3 e43c 075b a33d 586f 6bbd
00000170: 5e5b 403d 4780 a5bd 709b bfbb 00fb d7bb
00000180: 22ae ebbc 17ef 35bd 2080 21bb 7c59 a4bc
00000190: 1638 563d ee9e 6a3d e44f ce3c f0c5 74bd
000001a0: b89a 5cbc 2553 913d ae72 373d 6738 a03d
000001b0: 9e48 c7bc a1ce 9fbd 4462 e03c 70fd 65bc
000001c0: e38e 49bd e989 a13d a809 1bbd 9606 2b3d
000001d0: 29bf 9f3d d2d5 19bd a11a a13d 783e a0bc
000001e0: 5ffc a13d 607d a83c 5471 933c 106a 8cbc
000001f0: 0610 e5bc 3019 a63c 2646 0d3d 0833 09bd
00000200: b027 9b3b 009c 4eba b47d 0d3d 220b 8fbd
00000210: 943d a8bc fd4e 9d3d 7e70 4a3d 87f5 27bd
00000220: 8df8 9c3d 8837 6bbd b47b bd3c eecf 6b3d
00000230: 7aa1 0c3d 0bce af3d e653 6b3d 5fe1 af3d
00000240: 1880 693c 00d3 38ba be5d 223d eabd 89bd
00000250: 13e0 12bd b44b e8bc 9fab a4bd 26ef 1a3d
00000260: 45fb a83d 7c35 efbc 25dd 14bd a7ba 91bd
00000270: c0cc d63a 3aff 403d a104 18bd c299 6ebd
00000280: 2aed 2f3d fb8a 1dbd 40f9 e4bb 702f a5bd
00000290: b6e5 7bbd 5833 113c 0aa3 023d 68c4 91bd
000002a0: 761a 043d 5a1d d8bc 3768 66bd 8bbc 913d
000002b0: dae8 413d 358e 893d 2877 e0bc 9e44 5cbd
000002c0: 0deb ae3d 3252 6abd 33ea a03d c6d6 383d
000002d0: c079 c23b 8c28 033d aebb 563d 4eb8 293d
000002e0: a601 613d ea09 423d 44cb 99bd 50d9 7cbc
000002f0: 0036 76bd 3a0c 363d a88b 053d e088 82bb
00000300: c58c 8b3d 9c11 ec3c bbc0 a73d b4cf f53c
00000310: 1569 ac3d 10c6 a4bc 8524 93bd f2d0 e1bc
00000320: cca3 0e3d cb74 983d 1663 7d3d e33c 0ebd
00000330: b2be d6bc f53a 9d3d 727a 213d 9c30 91bc
00000340: 7b3d 9abd 6266 19bd b0eb a13c 183b 65bc
00000350: 2810 353c 4e41 733d 80dc 7cbb 5aa8 283d
00000360: a412 a53c 0e1e 1d3d 69a0 9b3d 7294 373d
00000370: 7e1f 74bd 639b a03d 60ea 8c3b c8a8 a03c
00000380: 83d9 9d3d d135 a63d 764e 2b3d 10a1 53bc
00000390: d083 bd3c 868c 423d 38b8 52bc 33c7 4fbd
000003a0: 581c 5c3c 33d5 813d 134b 88bd e4da 5abd
000003b0: 8578 9a3d abb7 3ebd b35d afbd 7400 76bd
000003c0: 4b71 1ebd 94b6 a1bc 404a c0bb 30f5 5c3c
000003d0: 0054 96bd fe2a 2d3d 34aa abbc 7149 913d
000003e0: 44e0 053d 266a 9ebd 1b0c a6bd d873 dd3c
000003f0: 4423 d63c a554 85bd 1e88 1d3d a0d7 f13c
-0.037826475 0.02721309 -0.010323763 0.05538865 0.047107033 0.017834842 0.043309577 -0.028244812
0.04245477 0.07913106 0.055697493 0.034996435 0.08589535 0.043652095 -0.04738572 0.049904637
0.023728698 0.0780027 -0.0030879304 -0.059636943 0.04754185 -0.019839771 -0.059214152 0.046817504
-0.040886305 0.045644976 0.0221989 0.056264244 0.06154061 -0.06819801 0.070197694 -0.0771974
-0.06137011 -0.0048324317 -0.034995787 0.036521815 -0.0794826 -0.0038888752 -0.05167411 0.038312078
0.03696505 0.048814826 0.05794982 0.008599184 -0.020066798 0.057947837 -0.061135292 0.024480663
-0.06232278 0.0109993 0.084729664 0.026621252 0.00030314922 0.016901128 0.071515076 0.07885862
0.07724019 -0.082720235 -0.010553859 0.06661426 0.08501532 -0.035730224 0.08061858 0.007506728
0.023558326 0.077892445 0.0012869388 -0.055958115 -0.039656624 0.08394825 0.04365269 -0.06476724
-0.05322354 0.025670275 -0.012387067 0.072214685 0.011485338 -0.04606526 0.0480581 -0.049384695
-0.014133289 -0.066873774 -0.028282221 -0.024739332 -0.021390975 -0.034157503 -0.00943169 0.039514624
0.038276546 0.027925014 0.079763465 -0.057479233 0.046962135 -0.080811076 -0.005847387 -0.006591201
-0.028769556 -0.044417467 -0.002464302 -0.0200622 0.05229958 0.057280473 0.02518458 -0.05975908
-0.013464622 0.07095937 0.0447871 0.07823258 -0.024326619 -0.07803083 0.027390607 -0.014037475
-0.049208533 0.078876324 -0.037851006 0.041754328 0.07800133 -0.03755743 0.07866407 -0.019561037
0.07909464 0.020567596 0.017998375 -0.017140418 -0.027961742 0.020275682 0.034490727 -0.033495933
0.0047349557 -0.0007881522 0.034543708 -0.06984545 -0.020537175 0.076810814 0.049423687 -0.041005637
0.07664595 -0.057426006 0.023130275 0.057571344 0.034333684 0.085842215 0.05745306 0.08587908
0.014251731 -0.00070504844 0.03964018 -0.06725676 -0.035858225 -0.02835641 -0.080405466 0.037825726
0.08251051 -0.029200308 -0.036343712 -0.07115679 0.0016387925 0.047118403 -0.03711379 -0.058252104
0.042950787 -0.03846262 -0.0069877207 -0.080656886 -0.061498366 0.008862339 0.031893767 -0.0711754
0.032251798 -0.026381183 -0.05625173 0.0711604 0.047341205 0.06716577 -0.027400568 -0.053776376
0.08540926 -0.057207294 0.0785717 0.0451267 0.005934924 0.03202109 0.05242508 0.041435532
0.054933213 0.047372736 -0.07509473 -0.015432671 -0.060110092 0.044445254 0.03260389 -0.003983602
0.06813959 0.02881699 0.08191057 0.030006267 0.0841848 -0.020113975 -0.071847 -0.027565453
0.034824178 0.074441515 0.061862074 -0.034726035 -0.026213977 0.07677261 0.039423414 -0.017723374
-0.07531258 -0.037451155 0.019765705 -0.01399114 0.011051215 0.05938845 -0.0038583577 0.041176178
0.02015049 0.03835874 0.07598955 0.044819303 -0.059600346 0.07842138 0.0043004006 0.019611731
0.07707503 0.081157334 0.041822873 -0.012916818 0.023134142 0.047497295 -0.012861304 -0.05072708
0.013434492 0.06339493 -0.06654944 -0.053431407 0.075425185 -0.04656188 -0.085627936 -0.060059026
-0.038682263 -0.01974038 -0.0058682263 0.013486192 -0.073402405 0.04227733 -0.020955183 0.07094086
0.03268458 -0.0773509 -0.08107778 0.027032778 0.026139863 -0.06510285 0.03845989 0.029521763

xlstm_cell.weight.bias f4 [512]
00000000: 75a0 94bd b035 e4bb 8a11 473d 2ad6 07bd
00000010: 7bce 68bd abc4 7fbd ec5d aabc 0049 01bc
00000020: 42cd 4e3d 19af 11bd 917a 893d b568 60bd
00000030: 4a64 d2bc 5d54 803d 7e0f 473d a927 4ebd
00000040: 8038 d2ba 343f a8bd f085 14bc e006 fb3b
00000050: d8e6 cb3c cb22 a73d b4ef b7bc 3aeb 5f3d
00000060: 40e1 193b 632a 9c3d 490c 8d3d 2dd3 923d
00000070: 07e6 833d fece 2cbd 283a ff3c 2ac6 02bd
00000080: 64be 84bc 8677 93bd 881c 8fbc c07b 15bc
00000090: fe6f 9cbd 8a75 81bd 53e5 9c3d 502a 97bb
000000a0: a320 843d 31a0 a93d 8a24 d2bc 2cbf aa3c
000000b0: 1c5e eabc a080 48bb 51e1 04bd 8ed6 5e3d
000000c0: 20bf 543b 3977 963d 1e27 89bd 8031 58bb
000000d0: 9194 993d f268 583d 13a7 a83d d0d0 e5bc
000000e0: 72e2 303d 7488 28bd 8ec1 543d 08b0 1d3d
000000f0: 28c4 bc3c e85e b3bc d830 f53c 64d9 9abc
00000100: 306b 0c3c e2fa 0d3d 823c 553d 895f 3bbd
00000110: 874e 0bbd 6875 393c bf8b 47bd e0fe 49bb
00000120: 00df 153d 111b 8fbd 9699 3d3d f7a6 8e3d
00000130: 0410 78bd 805f 843a d0cf a93c 1017 8b3b
00000140: 1b42 16bd 80d8 4cbc ef2e af3d b836 693c
00000150: 4d73 9b3d 30ad 03bc f4bd ecbc d95a 943d
00000160: 4073 7bbc f837 c83c 9f8b 5fbd 3014 823b
00000170: dd94 823d 0ac4 61bd 26c3 463d 47b0 50bd
00000180: 31fc a63d 9e17 81bd 8cb0 a0bc 44ba b7bc
00000190: eff3 913d 4781 72bd e81b 5e3c 8e1e 733d
000001a0: 0481 8fbc 32d4 5d3d df77 5dbd 68d6 d43c
000001b0: 94f3 75bd 122f 0b3d 03df a73d 93cd a43d
000001c0: 817a 45bd 1e3c 443d 4916 46bd d0e3 a4bd
000001d0: 57de 5cbd 6e09 0c3d 63fd 96bd 9aad 223d
000001e0: fe29 283d 5af2 253d f50c 97bd c01a cbba
000001f0: ca7b 613d 807c 1cbc 0010 f4ba e4c2 cf3c
00000200: 88b7 153d 17ef 873d a732 833d 9055 843b
00000210: 405b 67bc a1f0 853d b03d 9d3c c0e3 663b
00000220: c8cb 4ebc 200f 5cbc eeb5 6d3d c799 9a3d
00000230: 863b 493d 5edf 483d 1409 9dbc 1073 f6bb
00000240: 5906 31bd 09ee 903d cb9b a03d b666 4b3d
00000250: 302a 0bbc 3e9d 403d d39b 993d 4bcc a7bd
00000260: 3026 d6bc c037 f53c 797e 1ebd 0001 f03a
00000270: 3e00 693d 2f37 9d3d 7805 823c bcc5 e73c
00000280: 585d 4b3c c01f 183c dded 91bd bd49 8a3d
00000290: a47f c9bc 00a9 163d b256 043d ec35 8dbd
000002a0: 8933 973d 93ad a43d 49e4 883d 1c87 87bc
000002b0: 7828 fb3c 762e 443d 2829 7fbd 10b6 723c
000002c0: e069 3c3c aaeb 233d 368d aabd a7d4 93bd
000002d0: 9c34 ddbc e08c afbb f0c1 c9bb 00d8 6db9
000002e0: 697c a5bd 9127 8b3d 130d 03bd e3bc 953d
000002f0: 4092 ae3c a119 0dbd 6cb6 92bd d829 67bc
00000300: d277 683d f2a6 583d aaca 4e3d ffed 50bd
00000310: 803f 45ba c2db 2d3d 5d06 903d f3b5 2dbd
00000320: be1f 663d 034b 823d 6bc2 86bd 2830 583c
00000330: fb57 8c3d 00f9 6c3b 8879 13bc 144c a6bc
00000340: a0dc f5bc dcb6 a1bd ce0d 523d c09e 0ebb
00000350: 200d a83c c8a9 9fbd a7aa a83d 56dd 743d
00000360: 485b b03c 38a8 24bc da6b 8abd c1cb 823d
00000370: 4a5b 9dbd 30a7 ca3b 5adf 443d 017d 913d
00000380: 3450 33bd f221 243d b869 933c a52b 90bd
00000390: 67b3 3fbd 52d8 5c3d 70e5 183d 282a 6fbd
000003a0: 602a 16bb 23bd adbd a2a6 1e3d 9734 90bd
000003b0: 4f8b 3dbd 8e07 383d 78f6 3a3c 304a f53c
000003c0: 6954 1fbd f052 da3c 65db ac3d f255 583d
000003d0: 75b6 44bd 4ce2 37bd 03c1 30bd 4011 cf3c
000003e0: ece9 033d cc9c 033d 99b0 903d 0017 e8b9
000003f0: 80f2 00bb 4133 833d bb3f 903d f61d d4bc
-0.07257167 -0.006964408 0.04860071 -0.033163227 -0.05683754 -0.062443417 -0.020796739 -0.00789094
0.050488718 -0.035567377 0.06712831 -0.054787356 -0.025682587 0.06266091 0.04859876 -0.05033079
-0.0016038567 -0.0821518 -0.009065136 0.0076607317 0.024890348 0.08160933 -0.022453167 0.05466769
0.0023480207 0.07625272 0.06887109 0.07169185 0.064403586 -0.04218959 0.03115566 -0.031927265
-0.016204067 -0.07200532 -0.01746966 -0.009123743 -0.07638548 -0.06321247 0.076609276 -0.0046131983
0.064515375 0.08282507 -0.025652189 0.020843111 -0.028609328 -0.0030594245 -0.03244144 0.054403834
0.0032462552 0.07346959 -0.06696914 -0.0032988489 0.0749904 0.05283446 0.08234992 -0.028053671
0.043184705 -0.041145757 0.0519424 0.038497955 0.023042753 -0.02189584 0.029930517 -0.018902488
0.008570477 0.03466309 0.052059658 -0.045745406 -0.034010436 0.011319496 -0.048717257 -0.0030822083
0.036589622 -0.069875844 0.04628905 0.0696544 -0.06056215 0.0010099262 0.020728976 0.0042446926
-0.036684137 -0.0125027895 0.08553874 0.014234237 0.07590351 -0.008036897 -0.02889917 0.0724389
-0.015347302 0.02444075 -0.054576512 0.0039696917 0.0637605 -0.055118598 0.04852595 -0.05094936
0.081535704 -0.06303333 -0.019615434 -0.022427686 0.07126605 -0.05920532 0.013556458 0.05935531
-0.017517574 0.054157443 -0.054069396 0.025981143 -0.060046747 0.033980437 0.08196833 0.08047023
-0.048212532 0.047908895 -0.048361097 -0.08051264 -0.053922977 0.03418868 -0.073725484 0.03971634
0.041055672 0.040514328 -0.07375518 -0.0015495643 0.055049695 -0.0095511675 -0.0018620491 0.025361486
0.036551982 0.066374 0.064061455 0.00403852 -0.014120877 0.06540037 0.019194454 0.0035230964
-0.012621827 -0.01343134 0.05803483 0.07548862 0.04912903 0.049041145 -0.019169368 -0.0075210407
-0.043218944 0.070766516 0.07842215 0.0496585 -0.008493945 0.047024958 0.07500424 -0.08193263
-0.026141256 0.02993381 -0.038694832 0.0018310845 0.056884997 0.07676541 0.015871748 0.02829253
0.012412392 0.009284914 -0.07125447 0.06752346 -0.024596997 0.036782265 0.03230924 -0.068950504
0.073828764 0.08040919 0.06684167 -0.016543917 0.030658945 0.04789587 -0.06229511 0.014813915
0.011499852 0.04001967 -0.08327715 -0.072182946 -0.027002625 -0.00535737 -0.0061571524 -0.00022682548
-0.0808037 0.06794656 -0.03199489 0.07311418 0.021309972 -0.03444827 -0.071637005 -0.014109097
0.056754895 0.052893586 0.050486244 -0.05100822 -0.0007524416 0.042445906 0.07032464 -0.04240985
0.056182615 0.063619636 -0.06580051 0.013195075 0.068527184 0.0036159158 -0.009001143 -0.020299949
-0.030012429 -0.07896206 0.051282696 -0.0021762103 0.020514071 -0.07796055 0.08235674 0.059781395
0.021527901 -0.010049872 -0.06758852 0.06386519 -0.07683428 0.006184481 0.048064567 0.07103921
-0.04377766 0.040071435 0.017994747 -0.070395745 -0.04680195 0.053917237 0.037328184 -0.058389813
-0.002291344 -0.084833406 0.038733132 -0.07041281 -0.046275433 0.04492908 0.011411302 0.029942602
-0.03889886 0.026650876 0.08440284 0.05281634 -0.048025567 -0.044893548 -0.04315282 0.02527678
0.032205507 0.032131955 0.07064933 -0.00044267625 -0.0019675791 0.0640626 0.070434056 -0.025893193

attention.attn.in_proj_weight f4 [384, 128]
00000000: dee9 093d 1635 243d 9a4b 483d f357 dd3d
00000010: 0b4f 77bd b03b b5bb 8106 c5bd 780d 04bc
00000020: a892 4fbd 34c1 82bd 5a7a c3bd feff 283d
00000030: 8cc3 33bd 28bb 5cbd 6e52 083d dcd6 b5bd
00000040: bcd6 a3bd 6d11 8c3d 035a 96bd 41ce 833d
00000050: 4788 9d3d aca3 bbbc 0ee2 353d 7c2c c03c
00000060: 005b 3e3a 3f5a d9bd 31ca d03d 177d 893d
00000070: 79a2 babd cbbe b03d 5385 833d e467 ecbc
00000080: 6058 74bb 2a78 b2bd d021 01bd 742f b03c
00000090: 389a 14bd f07b 7d3c 031a b83d a5e0 8d3d
000000a0: 0cd2 f53c d3c6 9bbd 199b 993d 003f 2bba
000000b0: 983e 31bc b01f 44bd b670 2abd 9270 7bbd
000000c0: 5679 42bd 466f 063d 20ab 6e3b 049b 93bc
000000d0: 70e1 fabb 980e 06bc 8e0b 023d f0f9 573c
000000e0: 3f1a ac3d b2c0 293d 7405 f3bc 36db 54bd
000000f0: ee74 62bd 1c32 ca3c 1d06 ca3d 0cb0 c23c
00000100: b547 a4bd 2e2d 093d ad47 8c3d 7257 663d
00000110: f4ae dbbc 3852 67bc 826d 523d f233 2abd
00000120: ce39 173d f0cf a2bc a409 b4bd c95c 66bd
00000130: a549 d0bd dc24 e83c e4dc f73c 70d9 03bc
00000140: 16f2 4bbd 24df 90bd 0005 e7bb b5e3 7dbd
00000150: a9f5 65bd 6c36 30bd 21a2 cc3d d39d 9a3d
00000160: f3bb 9e3d f580 a2bd 0ecb 273d 2ebb 013d
00000170: dafb 4c3d 50b3 ee3b f493 99bd 4728 cebd
00000180: 5a00 243d 6050 37bd e235 723d 06ec 683d
00000190: b180 5bbd c14b b83d fb85 c7bd dc79 00bd
000001a0: 5cfd 12bd cbd2 923d 98a5 3cbc 694f 9fbd
000001b0: f844 13bc 82f3 2a3d 9267 32bd f543 ba3d
000001c0: 7911 913d 3ed6 673d 440f a83c 343e 8e3c
000001d0: c3bb ca3d b788 c83d ef66 923d 00ba fcbc
000001e0: c070 9dbd 8840 adbd 37ba dbbd dcd0 88bd
000001f0: da9d c8bd 28d1 1c3c fc48 44bd 6c30 ce3c
00000200: 5c82 ba3c cdb9 c53d aeb1 2d3d 7900 a93d
00000210: 7876 acbd c28d b4bd 805f cabb f6ec 133d
00000220: dbf9 c53d 84fe 14bd 5ee0 25bd 50ff bebc
00000230: 4217 a9bd 2c55 f43c b4eb 4ebd c2af 723d
00000240: 94e7 1dbd 2d87 b23d 69e4 66bd f069 033c
00000250: 4a88 98bd 6e46 3fbd b6c4 40bd f8c7 26bd
00000260: 80b5 94bc 0f1a b6bd bc25 86bd 6e44 683d
00000270: d04a 0bbc ace7 f93c 2071 763b 5c83 ad3c
00000280: 7a01 ccbd cb98 a2bd c7bb 8dbd 6b1b c63d
00000290: 6741 ddbd c4cc f13c 714d be3d daa6 193d
000002a0: 6ef5 1fbd 6776 a13d d530 a1bd 1308 833d
000002b0: eaad 693d 309e a4bd f44f d5bd a511 9abd
000002c0: 6c93 c53c b785 bbbd 0432 af3c 3434 933c
000002d0: ec49 ad3c 4a79 473d 4660 95bd c445 a0bc
000002e0: 6eed 323d 83a0 a73d f0db 13bd 00eb 58bc
000002f0: 5000 833b a0ee 0ebd f023 54bd 964d 473d
00000300: be69 7fbd 6cf6 df3c deac 2dbd e78a d83d
00000310: 16e2 a3bd 65d6 823d 35f8 d53d e939 b93d
00000320: 8f2c 3dbd 8cac e2bc dc29 b23c 3250 1e3d
00000330: ae1c 173d 9247 21bd 68e1 e5bc 6aa3 b1bd
00000340: 5611 8fbd c0c3 2c3b 7846 92bd 4bfe 833d
00000350: 800a 7d3b dcd5 e43c 208c 81bb f0d3 c7bc
00000360: 3481 903c 3127 823d 34e5 c93c 1cb6 ddbc
00000370: 6cb2 e4bc 9ae0 67bd ed65 dc3d 88ef 99bc
00000380: b3dd 913d 6f22 ac3d f237 cbbd 86b0 89bd
00000390: 2ab9 04bd a3aa d2bd 1053 88bc 7772 c03d
000003a0: 8988 c0bd d85a 87bc 6eb7 d2bd 0094 39bc
000003b0: ed6d a93d 6a37 79bd d2a6 b8bd a46a 923c
000003c0: 0019 d1bb 40ef d8ba 12df 84bd 55d7 c83d
000003d0: daa0 8abd 2801 74bc c2e8 3dbd 6c82 c23c
000003e0: 06a6 8bbd 23d7 993d 50e3 bfbb 6aea 85bd
000003f0: 040e dabd e3a8 b0bd fc5a 823c 717f c93d
0.0336703 0.04008969 0.048900224 0.108077906 -0.060378116 -0.005530797 -0.09620381 -0.008059852
-0.05067697 -0.06384507 -0.09544821 0.04125976 -0.04388766 -0.053889424 0.033281736 -0.08878872
-0.07999942 0.06839261 -0.07341387 0.06435824 0.076920085 -0.022905193 0.044405036 0.023458712
0.0007261485 -0.10612916 0.10194815 0.06713312 -0.091130204 0.08630141 0.06421914 -0.028858133
-0.003728412 -0.08714326 -0.031526387 0.021507002 -0.036279887 0.0154714435 0.08989336 0.06927613
0.030007385 -0.07606282 0.07500286 -0.000653252 -0.010818146 -0.047881782 -0.041611396 -0.061386652
-0.047478996 0.032820962 0.0036417916 -0.018018253 -0.007656269 -0.00818219 0.0317493 0.013182148
0.084034435 0.041443534 -0.029665686 -0.05196687 -0.055287294 0.024682097 0.09864447 0.023765586
-0.080214895 0.033490352 0.068496086 0.056235738 -0.026816823 -0.014118724 0.051373966 -0.041553445
0.03692036 -0.019874543 -0.08790901 -0.05624083 -0.101702966 0.028337888 0.030256696 -0.008047447
-0.049791418 -0.07073811 -0.0070501566 -0.061984736 -0.056142483 -0.04302065 0.09991861 0.07549634
0.07750692 -0.07934753 0.040965132 0.03167265 0.050044872 0.0072845593 -0.07498923 -0.10066276
0.040039398 -0.044754386 0.059133418 0.056865714 -0.053589527 0.08998824 -0.097423516 -0.031366214
-0.035886154 0.07169112 -0.01151409 -0.07778818 -0.008988611 0.041736133 -0.043555804 0.09094993
0.07083411 0.0566008 0.020515092 0.017363645 0.09899094 0.09791701 0.07148539 -0.03085041
-0.07687521 -0.08459574 -0.10728877 -0.06680462 -0.09795733 0.009571351 -0.047921166 0.025169574
0.022767238 0.09654579 0.042405777 0.08252043 -0.084210336 -0.08816101 -0.0061759353 0.036114655
0.09666797 -0.036375538 -0.040497176 -0.023315102 -0.08256389 0.02982577 -0.050517753 0.059249647
-0.03855093 0.08717189 -0.056370173 0.008020863 -0.0744787 -0.046698026 -0.0470626 -0.04071805
-0.018152952 -0.08891689 -0.06550166 0.056705885 -0.008501723 0.030505978 0.003760405 0.021180801
-0.09961219 -0.07939299 -0.06920581 0.09673198 -0.1080349 0.029516585 0.092921145 0.037512638
-0.03905242 0.078839116 -0.07870642 0.063980244 0.057050623 -0.08037984 -0.104156405 -0.07522897
0.024118148 -0.091563635 0.021386154 0.017969228 0.021153413 0.048699655 -0.07293753 -0.019564517
0.04368346 0.08184912 -0.03609842 -0.013239622 0.00399784 -0.03489554 -0.051792085 0.048657976
-0.062356703 0.027339183 -0.042401187 0.105733685 -0.08002107 0.06388549 0.10447732 0.090442486
-0.046185073 -0.027670167 0.021748476 0.0386507 0.036892585 -0.039374895 -0.028061584 -0.08673747
-0.069857284 0.0026361793 -0.07142347 0.06444987 0.0038610995 0.027934007 -0.003953472 -0.024393052
0.017639734 0.063551314 0.024645425 -0.027064376 -0.02791711 -0.05661068 0.10761628 -0.018790975
0.07122364 0.08405005 -0.0992278 -0.06723122 -0.03240315 -0.102864526 -0.01664117 0.093968324
-0.09401042 -0.01652281 -0.10288893 -0.01132679 0.0827292 -0.060843863 -0.090161934 0.017873116
-0.006381154 -0.0016550794 -0.0648786 0.09806696 -0.06768961 -0.014892854 -0.046364553 0.02374383
-0.06818776 0.07511737 -0.005855955 -0.065388516 -0.106472045 -0.086259626 0.015912525 0.09838761

attention.attn.in_proj_bias f4 [384]
00000000: 0000 0000 0000 0000 0000 0000 0000 0000
00000010: 0000 0000 0000 0000 0000 0000 0000 0000
00000020: 0000 0000 0000 0000 0000 0000 0000 0000
00000030: 0000 0000 0000 0000 0000 0000 0000 0000
00000040: 0000 0000 0000 0000 0000 0000 0000 0000
00000050: 0000 0000 0000 0000 0000 0000 0000 0000
00000060: 0000 0000 0000 0000 0000 0000 0000 0000
00000070: 0000 0000 0000 0000 0000 0000 0000 0000
00000080: 0000 0000 0000 0000 0000 0000 0000 0000
00000090: 0000 0000 0000 0000 0000 0000 0000 0000
000000a0: 0000 0000 0000 0000 0000 0000 0000 0000
000000b0: 0000 0000 0000 0000 0000 0000 0000 0000
000000c0: 0000 0000 0000 0000 0000 0000 0000 0000
000000d0: 0000 0000 0000 0000 0000 0000 0000 0000
000000e0: 0000 0000 0000 0000 0000 0000 0000 0000
000000f0: 0000 0000 0000 0000 0000 0000 0000 0000
00000100: 0000 0000 0000 0000 0000 0000 0000 0000
00000110: 0000 0000 0000 0000 0000 0000 0000 0000
00000120: 0000 0000 0000 0000 0000 0000 0000 0000
00000130: 0000 0000 0000 0000 0000 0000 0000 0000
00000140: 0000 0000 0000 0000 0000 0000 0000 0000
00000150: 0000 0000 0000 0000 0000 0000 0000 0000
00000160: 0000 0000 0000 0000 0000 0000 0000 0000
00000170: 0000 0000 0000 0000 0000 0000 0000 0000
00000180: 0000 0000 0000 0000 0000 0000 0000 0000
00000190: 0000 0000 0000 0000 0000 0000 0000 0000
000001a0: 0000 0000 0000 0000 0000 0000 0000 0000
000001b0: 0000 0000 0000 0000 0000 0000 0000 0000
000001c0: 0000 0000 0000 0000 0000 0000 0000 0000
000001d0: 0000 0000 0000 0000 0000 0000 0000 0000
000001e0: 0000 0000 0000 0000 0000 0000 0000 0000
000001f0: 0000 0000 0000 0000 0000 0000 0000 0000
00000200: 0000 0000 0000 0000 0000 0000 0000 0000
00000210: 0000 0000 0000 0000 0000 0000 0000 0000
00000220: 0000 0000 0000 0000 0000 0000 0000 0000
00000230: 0000 0000 0000 0000 0000 0000 0000 0000
00000240: 0000 0000 0000 0000 0000 0000 0000 0000
00000250: 0000 0000 0000 0000 0000 0000 0000 0000
00000260: 0000 0000 0000 0000 0000 0000 0000 0000
00000270: 0000 0000 0000 0000 0000 0000 0000 0000
00000280: 0000 0000 0000 0000 0000 0000 0000 0000
00000290: 0000 0000 0000 0000 0000 0000 0000 0000
000002a0: 0000 0000 0000 0000 0000 0000 0000 0000
000002b0: 0000 0000 0000 0000 0000 0000 0000 0000
000002c0: 0000 0000 0000 0000 0000 0000 0000 0000
000002d0: 0000 0000 0000 0000 0000 0000 0000 0000
000002e0: 0000 0000 0000 0000 0000 0000 0000 0000
000002f0: 0000 0000 0000 0000 0000 0000 0000 0000
00000300: 0000 0000 0000 0000 0000 0000 0000 0000
00000310: 0000 0000 0000 0000 0000 0000 0000 0000
00000320: 0000 0000 0000 0000 0000 0000 0000 0000
00000330: 0000 0000 0000 0000 0000 0000 0000 0000
00000340: 0000 0000 0000 0000 0000 0000 0000 0000
00000350: 0000 0000 0000 0000 0000 0000 0000 0000
00000360: 0000 0000 0000 0000 0000 0000 0000 0000
00000370: 0000 0000 0000 0000 0000 0000 0000 0000
00000380: 0000 0000 0000 0000 0000 0000 0000 0000
00000390: 0000 0000 0000 0000 0000 0000 0000 0000
000003a0: 0000 0000 0000 0000 0000 0000 0000 0000
000003b0: 0000 0000 0000 0000 0000 0000 0000 0000
000003c0: 0000 0000 0000 0000 0000 0000 0000 0000
000003d0: 0000 0000 0000 0000 0000 0000 0000 0000
000003e0: 0000 0000 0000 0000 0000 0000 0000 0000
000003f0: 0000 0000 0000 0000 0000 0000 0000 0000
0.0 0.0 0.0 0.0 0.0 0.0 0.0 0.0
0.0 0.0 0.0 0.0 0.0 0.0 0.0 0.0
0.0 0.0 0.0 0.0 0.0 0.0 0.0 0.0
0.0 0.0 0.0 0.0 0.0 0.0 0.0 0.0
0.0 0.0 0.0 0.0 0.0 0.0 0.0 0.0
0.0 0.0 0.0 0.0 0.0 0.0 0.0 0.0
0.0 0.0 0.0 0.0 0.0 0.0 0.0 0.0
0.0 0.0 0.0 0.0 0.0 0.0 0.0 0.0
0.0 0.0 0.0 0.0 0.0 0.0 0.0 0.0
0.0 0.0 0.0 0.0 0.0 0.0 0.0 0.0
0.0 0.0 0.0 0.0 0.0 0.0 0.0 0.0
0.0 0.0 0.0 0.0 0.0 0.0 0.0 0.0
0.0 0.0 0.0 0.0 0.0 0.0 0.0 0.0
0.0 0.0 0.0 0.0 0.0 0.0 0.0 0.0
0.0 0.0 0.0 0.0 0.0 0.0 0.0 0.0
0.0 0.0 0.0 0.0 0.0 0.0 0.0 0.0
0.0 0.0 0.0 0.0 0.0 0.0 0.0 0.0
0.0 0.0 0.0 0.0 0.0 0.0 0.0 0.0
0.0 0.0 0.0 0.0 0.0 0.0 0.0 0.0
0.0 0.0 0.0 0.0 0.0 0.0 0.0 0.0
0.0 0.0 0.0 0.0 0.0 0.0 0.0 0.0
0.0 0.0 0.0 0.0 0.0 0.0 0.0 0.0
0.0 0.0 0.0 0.0 0.0 0.0 0.0 0.0
0.0 0.0 0.0 0.0 0.0 0.0 0.0 0.0
0.0 0.0 0.0 0.0 0.0 0.0 0.0 0.0
0.0 0.0 0.0 0.0 0.0 0.0 0.0 0.0
0.0 0.0 0.0 0.0 0.0 0.0 0.0 0.0
0.0 0.0 0.0 0.0 0.0 0.0 0.0 0.0
0.0 0.0 0.0 0.0 0.0 0.0 0.0 0.0
0.0 0.0 0.0 0.0 0.0 0.0 0.0 0.0
0.0 0.0 0.0 0.0 0.0 0.0 0.0 0.0
0.0 0.0 0.0 0.0 0.0 0.0 0.0 0.0

attention.attn.out_proj.weight f4 [128, 128]
00000000: 7a3e 1ebd 1937 2fbd f82b 97bc 9deb 85bd
00000010: 4844 81bc 45f4 a53d 8294 6a3d 41ea acbd
00000020: 6197 19bd 46ac 333d d9f8 8e3d 0e16 a9bd
00000030: 5280 41bd dad6 393d 4bfa b2bd 92c0 723d
00000040: 35b9 873d 7adf 82bd e335 9dbd 1c80 85bc
00000050: 40cd f9bb 2c0e c1bc c6d8 383d 40f4 843a
00000060: c475 a1bc a03a 92bc 5062 de3b b5ec b0bd
00000070: 3a70 493d b29f 5b3d 2258 633d 06f4 32bd
00000080: b6a7 063d 0854 663c 7a3e 2a3d c08d 00bb
00000090: b533 993d a060 44bb 8039 223c f11a 75bd
000000a0: 8014 c5ba a046 c63b 8c30 a6bd 2b63 91bd
000000b0: 32ee 713d 382e 17bd 2002 69bd 1e78 523d
000000c0: edc7 b43d 008f d3ba 2897 843c ca96 123d
000000d0: 763b 9ebd 6820 24bd 9e52 4a3d c01c cf3b
000000e0: f4b8 f33c 0d62 3abd f6db 363d 1624 533d
000000f0: eb54 24bd 9522 993d 82a9 97bd 3d80 acbd
00000100: 3a58 acbd 6c43 1bbd 3919 8bbd 23a2 8ebd
00000110: aaf8 5c3d d2f5 ddbc 4ed8 6a3d 7055 333c
00000120: 681f 053d 7c69 083d e21a 253d 702b 4a3c
00000130: dc8f 9a3c f7ae 13bd 0fa3 8c3d 2611 6c3d
00000140: 18f2 98bd 772d 8dbd da43 99bd 1804 0a3c
00000150: 08ae b33c 42d5 353d b026 cfbb cad6 193d
00000160: 36d6 37bd ce0c 86bd 53fb 15bd 0801 84bc
00000170: 2a7e 37bd 27fd 973d aee5 b2bd 3bcc acbd
00000180: 0a12 07bd 26fd 47bd 669f acbd 63c4 a33d
00000190: c45e 95bc d1d4 8dbd c03b 84bb fc1a c0bc
000001a0: e48a d53c 008a 603a 00ee beb9 ca8d 503d
000001b0: 669d 043d 7da3 963d c2cc 143d 4e1d 783d
000001c0: 305d 8dbc 9c8a 49bd 4fb3 863d a8b5 823c
000001d0: 5a31 673d 426f 8abd 929f 88bd 90a6 10bd
000001e0: 2750 9f3d 88e4 71bd 2e95 67bd e715 06bd
000001f0: 7d17 913d c9b1 b13d 7066 c6bb bc16 60bd
00000200: da51 613d 6004 723c cccb 94bd a50f 0dbd
00000210: 16aa afbd 1afd dabc 0c08 963c 2ae8 7abd
00000220: 4a31 0d3d 8e2d 7d3d 3de5 aa3d 46c5 06bd
00000230: 1078 5e3c 24f1 893c bee1 a0bd 4749 b33d
00000240: 4388 9b3d 60d4 72bb 619f af3d 1009 a93b
00000250: 8898 0f3c 3638 03bd 80f1 913a 9a87 3c3d
00000260: 5b42 1abd 4770 92bd 04b5 80bd 1912 a73d
00000270: 4e9d 3a3d e829 30bc 4424 a4bd f664 8cbd
00000280: 87ee 76bd 5f91 9d3d aab4 2a3d 5280 163d
00000290: 3a4e 2f3d 43b8 ac3d c94d 943d 7f34 a73d
000002a0: df15 9b3d 626d 153d 3cd1 3abd 443c 92bc
000002b0: 0092 afbc e69e 2f3d c41b ed3c f176 953d
000002c0: f6b6 2a3d e442 cabc 703b 473c fb7f 62bd
000002d0: 7092 a33c 6b55 aabd 4cb5 8cbd 01f6 b23d
000002e0: 0021 6e3a 9e48 79bd 689e 413c c8a5 c13c
000002f0: a860 47bd 2c85 ee3c 467e 6b3d 390c afbd
00000300: d81e 77bc bef2 083d 1bc0 8bbd 828c d8bc
00000310: f8fe 173c 6a3a 323d 8001 cfbc 7628 a2bd
00000320: fed7 593d 5ac5 423d 9cb6 cd3c 58f9 6ebd
00000330: d043 41bc 6296 98bd b074 4dbc 6ce7 86bd
00000340: e433 f83c c047 903b 38e1 bc3c af5b b33d
00000350: ded3 593d 46b6 e9bc 0005 c93c 6601 3abd
00000360: 5aeb 4b3d 2822 52bc 74d1 90bd 83a0 59bd
00000370: 4e35 5b3d b6eb ecbc af20 a83d 006b 64ba
00000380: a495 90bd ea1e 713d 53c0 43bd c926 9e3d
00000390: 41a7 8c3d 9823 ccbc b498 913c 6954 823d
000003a0: 3824 763c df4a 843d 8281 6e3d 6c65 98bc
000003b0: 4e7c 09bd 2691 0a3d 88fd ef3c 3939 8f3d
000003c0: 647a b6bc 7036 1cbc a128 af3d fd71 0bbd
000003d0: 2019 063d 3d46 2cbd 6e90 103d 72cd f3bc
000003e0: 104a b5bb 3311 963d db26 33bd 10b2 113d
000003f0: d138 803d a1a3 09bd 13ca 97bd 9022 c0bc
-0.0386338 -0.042777155 -0.018453583 -0.0653908 -0.01577963 0.08103231 0.057270534 -0.08443118
-0.03749788 0.043865465 0.06981058 -0.0825616 -0.047241516 0.045370914 -0.08739146 0.05926568
0.06627122 -0.06390281 -0.07676294 -0.016296439 -0.0076233447 -0.023566328 0.045128606 0.0010143593
-0.019709475 -0.01785022 0.006786622 -0.08638898 0.049179293 0.053619094 0.055503972 -0.04368975
0.032874785 0.014058121 0.04156349 -0.001961574 0.074805655 -0.002996482 0.009901404 -0.059840146
-0.0015036017 0.0060508996 -0.08114728 -0.07098993 0.05906505 -0.036909312 -0.056886792 0.051384084
0.08827195 -0.001614064 0.016185358 0.035788335 -0.07726185 -0.040069968 0.049395196 0.006320566
0.029751278 -0.045503665 0.044643365 0.051548086 -0.040120047 0.07477299 -0.07405378 -0.08422897
-0.084152654 -0.037906095 -0.0679192 -0.06964519 0.053948082 -0.027094755 0.05733519 0.010945663
0.032500654 0.033303723 0.04030884 0.012339458 0.018867426 -0.03605553 0.068670385 0.05763354
-0.07468051 -0.06893437 -0.07483645 0.008423828 0.02193357 0.04439283 -0.0063217506 0.037558354
-0.04488202 -0.06545411 -0.036616635 -0.016113773 -0.044798054 0.07421332 -0.08735214 -0.08437391
-0.032976188 -0.048825406 -0.0842884 0.07996442 -0.018233664 -0.06925357 -0.004035443 -0.023450367
0.026067205 0.00085654855 -0.00036416948 0.05091647 0.03237667 0.07355402 0.036328085 0.060574822
-0.01725635 -0.049204454 0.06577169 0.015955761 0.05644355 -0.06759502 -0.066710606 -0.035315096
0.0777896 -0.059055835 -0.056538753 -0.03273573 0.07084558 0.08676488 -0.006054692 -0.05470918
0.0550097 0.014771551 -0.07265434 -0.034438748 -0.08577363 -0.026732016 0.018314384 -0.061256565
0.034470834 0.061811022 0.08344505 -0.03290298 0.01357843 0.016838618 -0.07855557 0.08754211
0.07594349 -0.0037052855 0.08575321 0.005158551 0.008764394 -0.03203603 0.0011134595 0.046027757
-0.037660938 -0.071503215 -0.06284526 0.08157749 0.045560174 -0.010752179 -0.080147296 -0.06855194
-0.06028607 0.07693743 0.0416762 0.03674347 0.042799212 0.08433583 0.07241399 0.0816431
0.07572531 0.03648127 -0.045609698 -0.017851003 -0.021431923 0.042876147 0.028943904 0.07298077
0.04167839 -0.024690099 0.012160167 -0.055297833 0.019967288 -0.083170734 -0.06870517 0.08738328
0.0009083897 -0.06086027 0.011817552 0.023638621 -0.048676163 0.029116236 0.05749347 -0.08547253
-0.015083037 0.033434622 -0.068237506 -0.026434187 0.009277098 0.04351274 -0.02526927 -0.079178736
0.0531845 0.04755149 0.025111489 -0.05834326 -0.011795953 -0.07450558 -0.0125400275 -0.06587109
0.03029818 0.0044030845 0.023056611 0.08757722 0.053180568 -0.028529298 0.024538517 -0.04541149
0.049784996 -0.012825526 -0.070712 -0.05313159 0.053517632 -0.02892099 0.08209359 -0.0008713454
-0.07059792 0.058867373 -0.047790837 0.077222414 0.06867839 -0.024919316 0.01777301 0.06363756
0.015023284 0.06459593 0.058228977 -0.01860305 -0.03356581 0.03382983 0.029295698 0.06993336
-0.022275157 -0.009534463 0.08552671 -0.034044255 0.032738805 -0.042059172 0.03529399 -0.02976105
-0.0055325106 0.07327499 -0.043738227 0.035570204 0.06260837 -0.033603314 -0.074115895 -0.02345398

attention.attn.out_proj.bias f4 [128]
00000000: 0000 0000 0000 0000 0000 0000 0000 0000
00000010: 0000 0000 0000 0000 0000 0000 0000 0000
00000020: 0000 0000 0000 0000 0000 0000 0000 0000
00000030: 0000 0000 0000 0000 0000 0000 0000 0000
00000040: 0000 0000 0000 0000 0000 0000 0000 0000
00000050: 0000 0000 0000 0000 0000 0000 0000 0000
00000060: 0000 0000 0000 0000 0000 0000 0000 0000
00000070: 0000 0000 0000 0000 0000 0000 0000 0000
00000080: 0000 0000 0000 0000 0000 0000 0000 0000
00000090: 0000 0000 0000 0000 0000 0000 0000 0000
000000a0: 0000 0000 0000 0000 0000 0000 0000 0000
000000b0: 0000 0000 0000 0000 0000 0000 0000 0000
000000c0: 0000 0000 0000 0000 0000 0000 0000 0000
000000d0: 0000 0000 0000 0000 0000 0000 0000 0000
000000e0: 0000 0000 0000 0000 0000 0000 0000 0000
000000f0: 0000 0000 0000 0000 0000 0000 0000 0000
00000100: 0000 0000 0000 0000 0000 0000 0000 0000
00000110: 0000 0000 0000 0000 0000 0000 0000 0000
00000120: 0000 0000 0000 0000 0000 0000 0000 0000
00000130: 0000 0000 0000 0000 0000 0000 0000 0000
00000140: 0000 0000 0000 0000 0000 0000 0000 0000
00000150: 0000 0000 0000 0000 0000 0000 0000 0000
00000160: 0000 0000 0000 0000 0000 0000 0000 0000
00000170: 0000 0000 0000 0000 0000 0000 0000 0000
00000180: 0000 0000 0000 0000 0000 0000 0000 0000
00000190: 0000 0000 0000 0000 0000 0000 0000 0000
000001a0: 0000 0000 0000 0000 0000 0000 0000 0000
000001b0: 0000 0000 0000 0000 0000 0000 0000 0000
000001c0: 0000 0000 0000 0000 0000 0000 0000 0000
000001d0: 0000 0000 0000 0000 0000 0000 0000 0000
000001e0: 0000 0000 0000 0000 0000 0000 0000 0000
000001f0: 0000 0000 0000 0000 0000 0000 0000 0000
0.0 0.0 0.0 0.0 0.0 0.0 0.0 0.0
0.0 0.0 0.0 0.0 0.0 0.0 0.0 0.0
0.0 0.0 0.0 0.0 0.0 0.0 0.0 0.0
0.0 0.0 0.0 0.0 0.0 0.0 0.0 0.0
0.0 0.0 0.0 0.0 0.0 0.0 0.0 0.0
0.0 0.0 0.0 0.0 0.0 0.0 0.0 0.0
0.0 0.0 0.0 0.0 0.0 0.0 0.0 0.0
0.0 0.0 0.0 0.0 0.0 0.0 0.0 0.0
0.0 0.0 0.0 0.0 0.0 0.0 0.0 0.0
0.0 0.0 0.0 0.0 0.0 0.0 0.0 0.0
0.0 0.0 0.0 0.0 0.0 0.0 0.0 0.0
0.0 0.0 0.0 0.0 0.0 0.0 0.0 0.0
0.0 0.0 0.0 0.0 0.0 0.0 0.0 0.0
0.0 0.0 0.0 0.0 0.0 0.0 0.0 0.0
0.0 0.0 0.0 0.0 0.0 0.0 0.0 0.0
0.0 0.0 0.0 0.0 0.0 0.0 0.0 0.0

attention.norm.weight f4 [128]
00000000: 0000 803f 0000 803f 0000 803f 0000 803f
00000010: 0000 803f 0000 803f 0000 803f 0000 803f
00000020: 0000 803f 0000 803f 0000 803f 0000 803f
00000030: 0000 803f 0000 803f 0000 803f 0000 803f
00000040: 0000 803f 0000 803f 0000 803f 0000 803f
00000050: 0000 803f 0000 803f 0000 803f 0000 803f
00000060: 0000 803f 0000 803f 0000 803f 0000 803f
00000070: 0000 803f 0000 803f 0000 803f 0000 803f
00000080: 0000 803f 0000 803f 0000 803f 0000 803f
00000090: 0000 803f 0000 803f 0000 803f 0000 803f
000000a0: 0000 803f 0000 803f 0000 803f 0000 803f
000000b0: 0000 803f 0000 803f 0000 803f 0000 803f
000000c0: 0000 803f 0000 803f 0000 803f 0000 803f
000000d0: 0000 803f 0000 803f 0000 803f 0000 803f
000000e0: 0000 803f 0000 803f 0000 803f 0000 803f
000000f0: 0000 803f 0000 803f 0000 803f 0000 803f
00000100: 0000 803f 0000 803f 0000 803f 0000 803f
00000110: 0000 803f 0000 803f 0000 803f 0000 803f
00000120: 0000 803f 0000 803f 0000 803f 0000 803f
00000130: 0000 803f 0000 803f 0000 803f 0000 803f
00000140: 0000 803f 0000 803f 0000 803f 0000 803f
00000150: 0000 803f 0000 803f 0000 803f 0000 803f
00000160: 0000 803f 0000 803f 0000 803f 0000 803f
00000170: 0000 803f 0000 803f 0000 803f 0000 803f
00000180: 0000 803f 0000 803f 0000 803f 0000 803f
00000190: 0000 803f 0000 803f 0000 803f 0000 803f
000001a0: 0000 803f 0000 803f 0000 803f 0000 803f
000001b0: 0000 803f 0000 803f 0000 803f 0000 803f
000001c0: 0000 803f 0000 803f 0000 803f 0000 803f
000001d0: 0000 803f 0000 803f 0000 803f 0000 803f
000001e0: 0000 803f 0000 803f 0000 803f 0000 803f
000001f0: 0000 803f 0000 803f 0000 803f 0000 803f
1.0 1.0 1.0 1.0 1.0 1.0 1.0 1.0
1.0 1.0 1.0 1.0 1.0 1.0 1.0 1.0
1.0 1.0 1.0 1.0 1.0 1.0 1.0 1.0
1.0 1.0 1.0 1.0 1.0 1.0 1.0 1.0
1.0 1.0 1.0 1.0 1.0 1.0 1.0 1.0
1.0 1.0 1.0 1.0 1.0 1.0 1.0 1.0
1.0 1.0 1.0 1.0 1.0 1.0 1.0 1.0
1.0 1.0 1.0 1.0 1.0 1.0 1.0 1.0
1.0 1.0 1.0 1.0 1.0 1.0 1.0 1.0
1.0 1.0 1.0 1.0 1.0 1.0 1.0 1.0
1.0 1.0 1.0 1.0 1.0 1.0 1.0 1.0
1.0 1.0 1.0 1.0 1.0 1.0 1.0 1.0
1.0 1.0 1.0 1.0 1.0 1.0 1.0 1.0
1.0 1.0 1.0 1.0 1.0 1.0 1.0 1.0
1.0 1.0 1.0 1.0 1.0 1.0 1.0 1.0
1.0 1.0 1.0 1.0 1.0 1.0 1.0 1.0

attention.norm.bias f4 [128]
00000000: 0000 0000 0000 0000 0000 0000 0000 0000
00000010: 0000 0000 0000 0000 0000 0000 0000 0000
00000020: 0000 0000 0000 0000 0000 0000 0000 0000
00000030: 0000 0000 0000 0000 0000 0000 0000 0000
00000040: 0000 0000 0000 0000 0000 0000 0000 0000
00000050: 0000 0000 0000 0000 0000 0000 0000 0000
00000060: 0000 0000 0000 0000 0000 0000 0000 0000
00000070: 0000 0000 0000 0000 0000 0000 0000 0000
00000080: 0000 0000 0000 0000 0000 0000 0000 0000
00000090: 0000 0000 0000 0000 0000 0000 0000 0000
000000a0: 0000 0000 0000 0000 0000 0000 0000 0000
000000b0: 0000 0000 0000 0000 0000 0000 0000 0000
000000c0: 0000 0000 0000 0000 0000 0000 0000 0000
000000d0: 0000 0000 0000 0000 0000 0000 0000 0000
000000e0: 0000 0000 0000 0000 0000 0000 0000 0000
000000f0: 0000 0000 0000 0000 0000 0000 0000 0000
00000100: 0000 0000 0000 0000 0000 0000 0000 0000
00000110: 0000 0000 0000 0000 0000 0000 0000 0000
00000120: 0000 0000 0000 0000 0000 0000 0000 0000
00000130: 0000 0000 0000 0000 0000 0000 0000 0000
00000140: 0000 0000 0000 0000 0000 0000 0000 0000
00000150: 0000 0000 0000 0000 0000 0000 0000 0000
00000160: 0000 0000 0000 0000 0000 0000 0000 0000
00000170: 0000 0000 0000 0000 0000 0000 0000 0000
00000180: 0000 0000 0000 0000 0000 0000 0000 0000
00000190: 0000 0000 0000 0000 0000 0000 0000 0000
000001a0: 0000 0000 0000 0000 0000 0000 0000 0000
000001b0: 0000 0000 0000 0000 0000 0000 0000 0000
000001c0: 0000 0000 0000 0000 0000 0000 0000 0000
000001d0: 0000 0000 0000 0000 0000 0000 0000 0000
000001e0: 0000 0000 0000 0000 0000 0000 0000 0000
000001f0: 0000 0000 0000 0000 0000 0000 0000 0000
0.0 0.0 0.0 0.0 0.0 0.0 0.0 0.0
0.0 0.0 0.0 0.0 0.0 0.0 0.0 0.0
0.0 0.0 0.0 0.0 0.0 0.0 0.0 0.0
0.0 0.0 0.0 0.0 0.0 0.0 0.0 0.0
0.0 0.0 0.0 0.0 0.0 0.0 0.0 0.0
0.0 0.0 0.0 0.0 0.0 0.0 0.0 0.0
0.0 0.0 0.0 0.0 0.0 0.0 0.0 0.0
0.0 0.0 0.0 0.0 0.0 0.0 0.0 0.0
0.0 0.0 0.0 0.0 0.0 0.0 0.0 0.0
0.0 0.0 0.0 0.0 0.0 0.0 0.0 0.0
0.0 0.0 0.0 0.0 0.0 0.0 0.0 0.0
0.0 0.0 0.0 0.0 0.0 0.0 0.0 0.0
0.0 0.0 0.0 0.0 0.0 0.0 0.0 0.0
0.0 0.0 0.0 0.0 0.0 0.0 0.0 0.0
0.0 0.0 0.0 0.0 0.0 0.0 0.0 0.0
0.0 0.0 0.0 0.0 0.0 0.0 0.0 0.0

actor.0.weight f4 [128, 141]
00000000: 742f 803d 37ae 36bd b0a8 a53c 44f3 a7bc
00000010: 00ba 4a3d 05e4 42bd 6633 a53d 685e 83bc
00000020: bcf6 383d 3160 48bd 120f 5fbd 3880 2dbc
00000030: 2066 413b b7f8 8abd 383c 583d 586e 8fbd
00000040: 7c7d 513d 0cb3 133d 6c6a dd3c 9890 713c
00000050: 548e e53c ce07 9abd d4bc 413d d511 40bd
00000060: c89b f23c c965 8ebd 6c6b e33c 1801 ae3c
00000070: b853 8cbd 5c0e 823d d03e 013c 02df 183d
00000080: 9890 20bc 0867 303d 8025 233a e0a2 553d
00000090: 2608 253d d0ac 7f3c 8e15 89bd 0145 77bd
000000a0: d6c9 ab3d c057 08bc 7c54 f0bc f481 9cbc
000000b0: e637 63bd eee9 87bd 40fd 51bb f460 663d
000000c0: 709e 8fbb a2fc 7cbd 60ed a03c e70f 54bd
000000d0: dae2 edbc 7859 013d aeb4 12bd 8c7a 343d
000000e0: eb3d a2bd 2048 f3bc 8895 fb3c b62d 903d
000000f0: d692 253d a557 8bbd 563d 9d3d 98d7 a33c
00000100: 80d9 573a 7c73 a13c c8f6 9cbd c4b4 29bd
00000110: 4ce2 ca3c a41e b13c 649f 213d 3891 18bd
00000120: 481f 8abc c020 473d d838 08bc 6048 1bbb
00000130: 28bb adbc 4499 a6bd 38d1 8b3c 103c 23bd
00000140: c8d5 1bbd c02f 343d 0f39 95bd 9cbb 2e3d
00000150: 8cfe 933c e101 a4bd 3072 043d 14a2 b1bc
00000160: 4c5c fb3c 5e2f a3bd 3424 563d 7ad9 6cbd
00000170: 8a53 93bd 40e7 d13a 900d a3bd 40cc 79bb
00000180: 8c5b 883d 7862 a8bd 7bc5 3dbd e438 a93c
00000190: 44b3 dc3c d405 c93c e87d 90bd 507a 8a3b
000001a0: df66 08bd e817 9bbd f821 40bd 048a 123d
000001b0: f4c6 923d 545e acbd 7850 653d fad4 a93d
000001c0: 88d3 61bd d6f8 ecbc 68b0 363d c41a d9bc
000001d0: e297 9b3d ca41 79bd 2682 063d 3204 913d
000001e0: 808d 0a3c 8405 91bc c6cf 67bd 98d7 81bd
000001f0: 48b2 d7bc a8ab 30bc 00ef 423b fc29 003d
00000200: be08 64bd b883 f1bc c89e c03c fc3a 3bbd
00000210: db29 38bd 38b4 393d 2f5b 10bd c4ea 8c3d
00000220: 2616 a73d 00a9 e439 060f 84bd 90ff d8bc
00000230: ea57 70bd 08c3 073d 8055 863b 995d a7bd
00000240: c095 e13c b2fd c8bc 4ec3 1c3d 9209 eabc
00000250: 3800 3a3d 7a2e 43bd 38af 76bd a4ad 6cbd
00000260: 10c9 a13d 727d a9bd 290b 8cbd dc87 ec3c
00000270: e079 cdbb 639a 5abd a0b9 643b b6a6 8bbd
00000280: da4c 4ebd 9eef 39bd 7808 2dbc 1262 f5bc
00000290: 2c3e 7a3d cec4 8a3d fc84 57bd d420 95bd
000002a0: 0821 bb3c 9089 c83b ea9d b6bc 286e 603d
000002b0: 799c 80bd c0ad dcbb 004b 323b 883f c0bc
000002c0: 86d6 863d f825 d6bc 21ab 6abd 84cf e53c
000002d0: b805 a6bc f875 253d a457 293d 6ee8 9f3d
000002e0: 24fb 97bc f02b ab3d a2cc a63d d0bd bfbc
000002f0: a091 c53c 2f80 1dbd 5e4f 033d 0b6c a1bd
00000300: 928f 2ebd 5df1 8fbd 6caf fe3c 14ac 96bd
00000310: cbf8 35bd 4049 903c 6245 0c3d 68d1 c13c
00000320: 4898 883c 6cf7 9e3d a9ef 4abd 9c8f 443d
00000330: 90ef 513d da40 11bd fa40 a03d c46a 9f3d
00000340: 902a 5c3d 24f7 5b3d 50b6 623d cf1f 40bd
00000350: c4ee 5a3d 03e5 91bd 005a debc 399b 2bbd
00000360: e02e 9c3c 484f 60bc 38bf 12bc 1e5b 17bd
00000370: 5095 82bb dc74 1b3d e46b 863c 8df0 01bd
00000380: 9868 7dbd f82c 953d dedb 983d 4c8b f5bc
00000390: f4aa 9ebd d0ee 593c e74c 4abd aeaf 31bd
000003a0: e002 2ebc e400 2a3d d039 0abd 0891 2d3c
000003b0: 0afa 963d 50f3 a4bc c465 353d 6dc4 9fbd
000003c0: 7884 903d 50a2 963d f698 68bd 0c8c ab3d
000003d0: 107e 58bd 6047 c1bc b2c3 233d 3cdf 3c3d
000003e0: 10ca 7ebc 5621 6ebd 4a41 8a3d 4942 93bd
000003f0: 1259 893d 78a9 86bd 0819 0fbc d99c 00bd
0.06259051 -0.044599738 0.020222038 -0.02050174 0.04949379 -0.047580738 0.08066444 -0.016036227
0.04515718 -0.04891986 -0.05445773 -0.010589652 0.0029510334 -0.0678572 0.052791804 -0.07003468
0.05114506 0.036059424 0.027028285 0.0147439465 0.028021969 -0.0752102 0.04729922 -0.046892006
0.029615298 -0.06953008 0.027761184 0.021240756 -0.068519056 0.06350395 0.007888511 0.03732205
-0.009800099 0.04306701 0.00062235445 0.052157283 0.040290974 0.015605167 -0.06693564 -0.06036854
0.083881065 -0.0083217025 -0.02933716 -0.019104935 -0.05547323 -0.066364154 -0.0032041818 0.056244805
-0.004382901 -0.061764367 0.01964444 -0.05177298 -0.029038835 0.031579465 -0.03581684 0.044062182
-0.07921966 -0.029697478 0.03071095 0.07039969 0.040423237 -0.06803826 0.076777145 0.020000264
0.0008234009 0.019708388 -0.07664257 -0.041432157 0.02476611 0.021621056 0.039458647 -0.037247866
-0.01686062 0.048615217 -0.008314334 -0.0023694262 -0.021207407 -0.08134702 0.017067537 -0.039852202
-0.038045675 0.04399085 -0.07286274 0.042659387 0.018065713 -0.08008171 0.03233546 -0.02168373
0.030683659 -0.07968019 0.05228062 -0.05782459 -0.07193668 0.0016014352 -0.07961571 -0.0038116127
0.06658086 -0.082219064 -0.04633091 0.02065701 0.02694095 0.024538912 -0.07055265 0.0042260066
-0.03330123 -0.07572919 -0.046907395 0.035776153 0.071668535 -0.08416429 0.055984944 0.08292575
-0.055133373 -0.028927248 0.044601828 -0.02650202 0.07597329 -0.060853757 0.032838963 0.07080878
0.008456588 -0.017702825 -0.056594633 -0.06339949 -0.026330128 -0.010783114 0.0029744506 0.03129004
-0.0556724 -0.029481754 0.023513213 -0.04571055 -0.04496179 0.045337886 -0.03524321 0.068807155
0.08158521 0.00043613464 -0.06448178 -0.02648905 -0.05867759 0.03314498 0.004099548 -0.08172149
0.027537227 -0.024535034 0.038272195 -0.028569017 0.045410365 -0.047651745 -0.060225695 -0.057782784
0.07899678 -0.0827588 -0.06838066 0.028873377 -0.006270632 -0.05336989 0.003490068 -0.06818907
-0.05036626 -0.045394532 -0.010561101 -0.02995399 0.061094448 0.06775819 -0.05261706 -0.07281652
0.022842899 0.0061199144 -0.022292096 0.054792553 -0.06279845 -0.00673458 0.0027205348 -0.023467794
0.06583886 -0.026141152 -0.057292107 0.028053053 -0.020266399 0.040395707 0.041343346 0.07808004
-0.01855237 0.0835799 0.08144499 -0.02340594 0.024117291 -0.038452324 0.032058112 -0.07881936
-0.042617388 -0.07028458 0.031089507 -0.0735704 -0.04442672 0.017613053 0.034245856 0.023659423
0.016674176 0.07762036 -0.049544964 0.04798852 0.051253855 -0.035462238 0.07824893 0.07784036
0.05375153 0.05370249 0.055349648 -0.046905335 0.05345036 -0.07123759 -0.027142525 -0.04189608
0.01906532 -0.013690777 -0.008956723 -0.03695213 -0.0039850846 0.037953243 0.016408868 -0.031723548
-0.061867326 0.07283968 0.07463811 -0.029973648 -0.077474505 0.013301566 -0.049389746 -0.04338043
-0.010620803 0.041504756 -0.03374654 0.01059366 0.0737191 -0.020135552 0.044286504 -0.07801137
0.070565164 0.073551774 -0.0567865 0.08376321 -0.052854598 -0.023593605 0.03998155 0.04611133
-0.015551105 -0.05813726 0.06750734 -0.07190377 0.06706442 -0.06575292 -0.008733995 -0.03139958

actor.0.bias f4 [128]
00000000: fbaf 4abd 8072 243b 389d 853d cdb7 69bd
00000010: c29d 983d e88c 3f3d 80ef 25ba 7bae 65bd
00000020: 730d 11bd 9cf7 6d3d 50e2 28bd 6cca 693d
00000030: 4ab0 263d b3c7 8bbd a0ce 1a3b 50d3 a73b
00000040: d4b9 cc3c 3128 74bd 76da a83d 0a09 993d
00000050: dc3d 8fbc a4f2 45bd f0b5 c53b a86f 22bc
00000060: 4442 593d e84e 8c3d b8c5 17bc 7883 a53d
00000070: 80aa 44ba ec97 ce3c 6263 9c3d 40cb a1bd
00000080: c849 a23d f9b9 9bbd e332 3ebd 1292 4fbd
00000090: c409 593d 1a38 0c3d a4af 6fbd 08f0 3cbc
000000a0: 1409 803d 84c3 a1bc 0468 3a3d fd21 a3bd
000000b0: b833 e43c 76f2 a93d 1c20 f03c 8004 303a
000000c0: d82f 273d 48d7 253c b8f5 2ebc b008 8ebd
000000d0: 3856 4b3c 306d 0dbd dc70 41bd 5eda e0bc
000000e0: 1cde 27bd c098 9bbb 4017 a7bc 285d 0f3c
000000f0: feb1 89bd 7ce8 eebc aa1f 68bd ac41 c4bc
00000100: c0fe 6cbd bcaf 5abd aa76 263d 02e1 8c3d
00000110: b085 983c 80d3 8aba 5087 8e3c f0d5 793d
00000120: ae84 98bd 00f1 a3b9 00ed 4fbc d082 853b
00000130: 52b8 0f3d 60af 0d3b 5854 df3c 1cdd 9dbd
00000140: e834 ac3d 0059 113b ef51 a7bd 60a8 703d
00000150: c40c 93bc 70d2 e63c d850 043d 1850 c03c
00000160: 4018 8e3d 6ad8 173d 7451 9cbc 40ba 603c
00000170: c0e8 9e3d b26d 8f3d baa8 933d 0c95 a23d
00000180: e897 4bbc b050 663c 00b4 873a b0c4 abbb
00000190: 0bad 2dbd 58df 333c 88fb 823d 44c6 aa3d
000001a0: 7c5b 743d 7cf3 243d f60a e1bc 20f5 13bb
000001b0: 4c8e 61bd 80ca 743b f051 f0bc 50ec 5a3c
000001c0: 92ec 9a3d 90ca a6bb f2ba 8f3d 0c7a a9bd
000001d0: 00a8 523b c0fd edba 7810 453d b884 2b3c
000001e0: 60d6 39bd 94d9 d6bc c09f 2a3d a430 c43c
000001f0: a0b2 683d 385a 643c f386 a5bd 6a40 823d
-0.049484234 0.0025092661 0.06524128 -0.05706005 0.07451965 0.046765238 -0.0006329939 -0.0560746
-0.035413217 0.058097467 -0.041231453 0.05707781 0.040695466 -0.06825199 0.0023621693 0.005121626
0.024990954 -0.059608642 0.08244793 0.07472427 -0.017485552 -0.048327103 0.0060336515 -0.009914316
0.05304171 0.06850988 -0.009263448 0.08081716 -0.0007502213 0.025218926 0.07636143 -0.07900095
0.07924229 -0.07603831 -0.046435248 -0.050676413 0.05298783 0.03423319 -0.058517113 -0.011531837
0.062517315 -0.01974655 0.045509353 -0.07965467 0.027856693 0.08298199 0.029312186 0.0006714538
0.04081711 0.010122128 -0.010678701 -0.06935251 0.012410693 -0.034527957 -0.04722677 -0.027447876
-0.040983304 -0.004748434 -0.020396829 0.0087502375 -0.067234024 -0.029163592 -0.056670822 -0.023957096
-0.057860136 -0.05339025 0.04064051 0.06878854 0.018618435 -0.0010591596 0.017398506 0.060995042
-0.07447182 -0.00031269342 -0.012690783 0.004074432 0.03508789 0.0021619424 0.027261898 -0.07708189
0.084085286 0.0022178292 -0.081699245 0.058754325 -0.017950423 0.028176516 0.03230366 0.023475692
0.06938219 0.037071623 -0.019081809 0.01371628 0.07759237 0.070033446 0.072099164 0.07938585
-0.012426354 0.014057323 0.0010353327 -0.005241953 -0.042401355 0.010978542 0.06395632 0.083385974
0.05965756 0.040271267 -0.027471047 -0.0022576526 -0.055067345 0.0037352145 -0.029335946 0.013362005
0.075646535 -0.0050900653 0.07018079 -0.08275232 0.0032143593 -0.0018157288 0.04811141 0.010468654
-0.04537046 -0.026226796 0.041656256 0.023948975 0.056810975 0.013937525 -0.0808238 0.06359942

actor.1.weight f4 [128]
00000000: 0000 803f 0000 803f 0000 803f 0000 803f
00000010: 0000 803f 0000 803f 0000 803f 0000 803f
00000020: 0000 803f 0000 803f 0000 803f 0000 803f
00000030: 0000 803f 0000 803f 0000 803f 0000 803f
00000040: 0000 803f 0000 803f 0000 803f 0000 803f
00000050: 0000 803f 0000 803f 0000 803f 0000 803f
00000060: 0000 803f 0000 803f 0000 803f 0000 803f
00000070: 0000 803f 0000 803f 0000 803f 0000 803f
00000080: 0000 803f 0000 803f 0000 803f 0000 803f
00000090: 0000 803f 0000 803f 0000 803f 0000 803f
000000a0: 0000 803f 0000 803f 0000 803f 0000 803f
000000b0: 0000 803f 0000 803f 0000 803f 0000 803f
000000c0: 0000 803f 0000 803f 0000 803f 0000 803f
000000d0: 0000 803f 0000 803f 0000 803f 0000 803f
000000e0: 0000 803f 0000 803f 0000 803f 0000 803f
000000f0: 0000 803f 0000 803f 0000 803f 0000 803f
00000100: 0000 803f 0000 803f 0000 803f 0000 803f
00000110: 0000 803f 0000 803f 0000 803f 0000 803f
00000120: 0000 803f 0000 803f 0000 803f 0000 803f
00000130: 0000 803f 0000 803f 0000 803f 0000 803f
00000140: 0000 803f 0000 803f 0000 803f 0000 803f
00000150: 0000 803f 0000 803f 0000 803f 0000 803f
00000160: 0000 803f 0000 803f 0000 803f 0000 803f
00000170: 0000 803f 0000 803f 0000 803f 0000 803f
00000180: 0000 803f 0000 803f 0000 803f 0000 803f
00000190: 0000 803f 0000 803f 0000 803f 0000 803f
000001a0: 0000 803f 0000 803f 0000 803f 0000 803f
000001b0: 0000 803f 0000 803f 0000 803f 0000 803f
000001c0: 0000 803f 0000 803f 0000 803f 0000 803f
000001d0: 0000 803f 0000 803f 0000 803f 0000 803f
000001e0: 0000 803f 0000 803f 0000 803f 0000 803f
000001f0: 0000 803f 0000 803f 0000 803f 0000 803f
1.0 1.0 1.0 1.0 1.0 1.0 1.0 1.0
1.0 1.0 1.0 1.0 1.0 1.0 1.0 1.0
1.0 1.0 1.0 1.0 1.0 1.0 1.0 1.0
1.0 1.0 1.0 1.0 1.0 1.0 1.0 1.0
1.0 1.0 1.0 1.0 1.0 1.0 1.0 1.0
1.0 1.0 1.0 1.0 1.0 1.0 1.0 1.0
1.0 1.0 1.0 1.0 1.0 1.0 1.0 1.0
1.0 1.0 1.0 1.0 1.0 1.0 1.0 1.0
1.0 1.0 1.0 1.0 1.0 1.0 1.0 1.0
1.0 1.0 1.0 1.0 1.0 1.0 1.0 1.0
1.0 1.0 1.0 1.0 1.0 1.0 1.0 1.0
1.0 1.0 1.0 1.0 1.0 1.0 1.0 1.0
1.0 1.0 1.0 1.0 1.0 1.0 1.0 1.0
1.0 1.0 1.0 1.0 1.0 1.0 1.0 1.0
1.0 1.0 1.0 1.0 1.0 1.0 1.0 1.0
1.0 1.0 1.0 1.0 1.0 1.0 1.0 1.0

actor.1.bias f4 [128]
00000000: 0000 0000 0000 0000 0000 0000 0000 0000
00000010: 0000 0000 0000 0000 0000 0000 0000 0000
00000020: 0000 0000 0000 0000 0000 0000 0000 0000
00000030: 0000 0000 0000 0000 0000 0000 0000 0000
00000040: 0000 0000 0000 0000 0000 0000 0000 0000
00000050: 0000 0000 0000 0000 0000 0000 0000 0000
00000060: 0000 0000 0000 0000 0000 0000 0000 0000
00000070: 0000 0000 0000 0000 0000 0000 0000 0000
00000080: 0000 0000 0000 0000 0000 0000 0000 0000
00000090: 0000 0000 0000 0000 0000 0000 0000 0000
000000a0: 0000 0000 0000 0000 0000 0000 0000 0000
000000b0: 0000 0000 0000 0000 0000 0000 0000 0000
000000c0: 0000 0000 0000 0000 0000 0000 0000 0000
000000d0: 0000 0000 0000 0000 0000 0000 0000 0000
000000e0: 0000 0000 0000 0000 0000 0000 0000 0000
000000f0: 0000 0000 0000 0000 0000 0000 0000 0000
00000100: 0000 0000 0000 0000 0000 0000 0000 0000
00000110: 0000 0000 0000 0000 0000 0000 0000 0000
00000120: 0000 0000 0000 0000 0000 0000 0000 0000
00000130: 0000 0000 0000 0000 0000 0000 0000 0000
00000140: 0000 0000 0000 0000 0000 0000 0000 0000
00000150: 0000 0000 0000 0000 0000 0000 0000 0000
00000160: 0000 0000 0000 0000 0000 0000 0000 0000
00000170: 0000 0000 0000 0000 0000 0000 0000 0000
00000180: 0000 0000 0000 0000 0000 0000 0000 0000
00000190: 0000 0000 0000 0000 0000 0000 0000 0000
000001a0: 0000 0000 0000 0000 0000 0000 0000 0000
000001b0: 0000 0000 0000 0000 0000 0000 0000 0000
000001c0: 0000 0000 0000 0000 0000 0000 0000 0000
000001d0: 0000 0000 0000 0000 0000 0000 0000 0000
000001e0: 0000 0000 0000 0000 0000 0000 0000 0000
000001f0: 0000 0000 0000 0000 0000 0000 0000 0000
0.0 0.0 0.0 0.0 0.0 0.0 0.0 0.0
0.0 0.0 0.0 0.0 0.0 0.0 0.0 0.0
0.0 0.0 0.0 0.0 0.0 0.0 0.0 0.0
0.0 0.0 0.0 0.0 0.0 0.0 0.0 0.0
0.0 0.0 0.0 0.0 0.0 0.0 0.0 0.0
0.0 0.0 0.0 0.0 0.0 0.0 0.0 0.0
0.0 0.0 0.0 0.0 0.0 0.0 0.0 0.0
0.0 0.0 0.0 0.0 0.0 0.0 0.0 0.0
0.0 0.0 0.0 0.0 0.0 0.0 0.0 0.0
0.0 0.0 0.0 0.0 0.0 0.0 0.0 0.0
0.0 0.0 0.0 0.0 0.0 0.0 0.0 0.0
0.0 0.0 0.0 0.0 0.0 0.0 0.0 0.0
0.0 0.0 0.0 0.0 0.0 0.0 0.0 0.0
0.0 0.0 0.0 0.0 0.0 0.0 0.0 0.0
0.0 0.0 0.0 0.0 0.0 0.0 0.0 0.0
0.0 0.0 0.0 0.0 0.0 0.0 0.0 0.0
